 CUDA-version: 10000 (11020), cuDNN: 7.4.1, CUDNN_HALF=1, GPU count: 1  
 CUDNN_HALF=1 
 OpenCV version: 3.2.0
 0 : compute_capability = 750, cudnn_half = 1, GPU: GeForce RTX 2080 Ti 
net.optimized_memory = 0 
mini_batch = 1, batch = 20, time_steps = 1, train = 0 
   layer   filters  size/strd(dil)      input                output
   0 conv     32       3 x 3/ 1    512 x 512 x   3 ->  512 x 512 x  32 0.453 BF
   1 conv     64       3 x 3/ 2    512 x 512 x  32 ->  256 x 256 x  64 2.416 BF
   2 conv     32       1 x 1/ 1    256 x 256 x  64 ->  256 x 256 x  32 0.268 BF
   3 conv     64       3 x 3/ 1    256 x 256 x  32 ->  256 x 256 x  64 2.416 BF
   4 Shortcut Layer: 1,  wt = 0, wn = 0, outputs: 256 x 256 x  64 0.004 BF
   5 conv    128       3 x 3/ 2    256 x 256 x  64 ->  128 x 128 x 128 2.416 BF
   6 conv     64       1 x 1/ 1    128 x 128 x 128 ->  128 x 128 x  64 0.268 BF
   7 route  5 		                           ->  128 x 128 x 128 
   8 conv     64       1 x 1/ 1    128 x 128 x 128 ->  128 x 128 x  64 0.268 BF
   9 conv     64       1 x 1/ 1    128 x 128 x  64 ->  128 x 128 x  64 0.134 BF
  10 conv     64       3 x 3/ 1    128 x 128 x  64 ->  128 x 128 x  64 1.208 BF
  11 Shortcut Layer: 8,  wt = 0, wn = 0, outputs: 128 x 128 x  64 0.001 BF
  12 conv     64       1 x 1/ 1    128 x 128 x  64 ->  128 x 128 x  64 0.134 BF
  13 conv     64       3 x 3/ 1    128 x 128 x  64 ->  128 x 128 x  64 1.208 BF
  14 Shortcut Layer: 11,  wt = 0, wn = 0, outputs: 128 x 128 x  64 0.001 BF
  15 conv     64       1 x 1/ 1    128 x 128 x  64 ->  128 x 128 x  64 0.134 BF
  16 route  15 6 	                           ->  128 x 128 x 128 
  17 conv    128       1 x 1/ 1    128 x 128 x 128 ->  128 x 128 x 128 0.537 BF
  18 conv    256       3 x 3/ 2    128 x 128 x 128 ->   64 x  64 x 256 2.416 BF
  19 conv    128       1 x 1/ 1     64 x  64 x 256 ->   64 x  64 x 128 0.268 BF
  20 route  18 		                           ->   64 x  64 x 256 
  21 conv    128       1 x 1/ 1     64 x  64 x 256 ->   64 x  64 x 128 0.268 BF
  22 conv    128       1 x 1/ 1     64 x  64 x 128 ->   64 x  64 x 128 0.134 BF
  23 conv    128       3 x 3/ 1     64 x  64 x 128 ->   64 x  64 x 128 1.208 BF
  24 Shortcut Layer: 21,  wt = 0, wn = 0, outputs:  64 x  64 x 128 0.001 BF
  25 conv    128       1 x 1/ 1     64 x  64 x 128 ->   64 x  64 x 128 0.134 BF
  26 conv    128       3 x 3/ 1     64 x  64 x 128 ->   64 x  64 x 128 1.208 BF
  27 Shortcut Layer: 24,  wt = 0, wn = 0, outputs:  64 x  64 x 128 0.001 BF
  28 conv    128       1 x 1/ 1     64 x  64 x 128 ->   64 x  64 x 128 0.134 BF
  29 conv    128       3 x 3/ 1     64 x  64 x 128 ->   64 x  64 x 128 1.208 BF
  30 Shortcut Layer: 27,  wt = 0, wn = 0, outputs:  64 x  64 x 128 0.001 BF
  31 conv    128       1 x 1/ 1     64 x  64 x 128 ->   64 x  64 x 128 0.134 BF
  32 conv    128       3 x 3/ 1     64 x  64 x 128 ->   64 x  64 x 128 1.208 BF
  33 Shortcut Layer: 30,  wt = 0, wn = 0, outputs:  64 x  64 x 128 0.001 BF
  34 conv    128       1 x 1/ 1     64 x  64 x 128 ->   64 x  64 x 128 0.134 BF
  35 conv    128       3 x 3/ 1     64 x  64 x 128 ->   64 x  64 x 128 1.208 BF
  36 Shortcut Layer: 33,  wt = 0, wn = 0, outputs:  64 x  64 x 128 0.001 BF
  37 conv    128       1 x 1/ 1     64 x  64 x 128 ->   64 x  64 x 128 0.134 BF
  38 conv    128       3 x 3/ 1     64 x  64 x 128 ->   64 x  64 x 128 1.208 BF
  39 Shortcut Layer: 36,  wt = 0, wn = 0, outputs:  64 x  64 x 128 0.001 BF
  40 conv    128       1 x 1/ 1     64 x  64 x 128 ->   64 x  64 x 128 0.134 BF
  41 conv    128       3 x 3/ 1     64 x  64 x 128 ->   64 x  64 x 128 1.208 BF
  42 Shortcut Layer: 39,  wt = 0, wn = 0, outputs:  64 x  64 x 128 0.001 BF
  43 conv    128       1 x 1/ 1     64 x  64 x 128 ->   64 x  64 x 128 0.134 BF
  44 conv    128       3 x 3/ 1     64 x  64 x 128 ->   64 x  64 x 128 1.208 BF
  45 Shortcut Layer: 42,  wt = 0, wn = 0, outputs:  64 x  64 x 128 0.001 BF
  46 conv    128       1 x 1/ 1     64 x  64 x 128 ->   64 x  64 x 128 0.134 BF
  47 route  46 19 	                           ->   64 x  64 x 256 
  48 conv    256       1 x 1/ 1     64 x  64 x 256 ->   64 x  64 x 256 0.537 BF
  49 conv    512       3 x 3/ 2     64 x  64 x 256 ->   32 x  32 x 512 2.416 BF
  50 conv    256       1 x 1/ 1     32 x  32 x 512 ->   32 x  32 x 256 0.268 BF
  51 route  49 		                           ->   32 x  32 x 512 
  52 conv    256       1 x 1/ 1     32 x  32 x 512 ->   32 x  32 x 256 0.268 BF
  53 conv    256       1 x 1/ 1     32 x  32 x 256 ->   32 x  32 x 256 0.134 BF
  54 conv    256       3 x 3/ 1     32 x  32 x 256 ->   32 x  32 x 256 1.208 BF
  55 Shortcut Layer: 52,  wt = 0, wn = 0, outputs:  32 x  32 x 256 0.000 BF
  56 conv    256       1 x 1/ 1     32 x  32 x 256 ->   32 x  32 x 256 0.134 BF
  57 conv    256       3 x 3/ 1     32 x  32 x 256 ->   32 x  32 x 256 1.208 BF
  58 Shortcut Layer: 55,  wt = 0, wn = 0, outputs:  32 x  32 x 256 0.000 BF
  59 conv    256       1 x 1/ 1     32 x  32 x 256 ->   32 x  32 x 256 0.134 BF
  60 conv    256       3 x 3/ 1     32 x  32 x 256 ->   32 x  32 x 256 1.208 BF
  61 Shortcut Layer: 58,  wt = 0, wn = 0, outputs:  32 x  32 x 256 0.000 BF
  62 conv    256       1 x 1/ 1     32 x  32 x 256 ->   32 x  32 x 256 0.134 BF
  63 conv    256       3 x 3/ 1     32 x  32 x 256 ->   32 x  32 x 256 1.208 BF
  64 Shortcut Layer: 61,  wt = 0, wn = 0, outputs:  32 x  32 x 256 0.000 BF
  65 conv    256       1 x 1/ 1     32 x  32 x 256 ->   32 x  32 x 256 0.134 BF
  66 conv    256       3 x 3/ 1     32 x  32 x 256 ->   32 x  32 x 256 1.208 BF
  67 Shortcut Layer: 64,  wt = 0, wn = 0, outputs:  32 x  32 x 256 0.000 BF
  68 conv    256       1 x 1/ 1     32 x  32 x 256 ->   32 x  32 x 256 0.134 BF
  69 conv    256       3 x 3/ 1     32 x  32 x 256 ->   32 x  32 x 256 1.208 BF
  70 Shortcut Layer: 67,  wt = 0, wn = 0, outputs:  32 x  32 x 256 0.000 BF
  71 conv    256       1 x 1/ 1     32 x  32 x 256 ->   32 x  32 x 256 0.134 BF
  72 conv    256       3 x 3/ 1     32 x  32 x 256 ->   32 x  32 x 256 1.208 BF
  73 Shortcut Layer: 70,  wt = 0, wn = 0, outputs:  32 x  32 x 256 0.000 BF
  74 conv    256       1 x 1/ 1     32 x  32 x 256 ->   32 x  32 x 256 0.134 BF
  75 conv    256       3 x 3/ 1     32 x  32 x 256 ->   32 x  32 x 256 1.208 BF
  76 Shortcut Layer: 73,  wt = 0, wn = 0, outputs:  32 x  32 x 256 0.000 BF
  77 conv    256       1 x 1/ 1     32 x  32 x 256 ->   32 x  32 x 256 0.134 BF
  78 route  77 50 	                           ->   32 x  32 x 512 
  79 conv    512       1 x 1/ 1     32 x  32 x 512 ->   32 x  32 x 512 0.537 BF
  80 conv   1024       3 x 3/ 2     32 x  32 x 512 ->   16 x  16 x1024 2.416 BF
  81 conv    512       1 x 1/ 1     16 x  16 x1024 ->   16 x  16 x 512 0.268 BF
  82 route  80 		                           ->   16 x  16 x1024 
  83 conv    512       1 x 1/ 1     16 x  16 x1024 ->   16 x  16 x 512 0.268 BF
  84 conv    512       1 x 1/ 1     16 x  16 x 512 ->   16 x  16 x 512 0.134 BF
  85 conv    512       3 x 3/ 1     16 x  16 x 512 ->   16 x  16 x 512 1.208 BF
  86 Shortcut Layer: 83,  wt = 0, wn = 0, outputs:  16 x  16 x 512 0.000 BF
  87 conv    512       1 x 1/ 1     16 x  16 x 512 ->   16 x  16 x 512 0.134 BF
  88 conv    512       3 x 3/ 1     16 x  16 x 512 ->   16 x  16 x 512 1.208 BF
  89 Shortcut Layer: 86,  wt = 0, wn = 0, outputs:  16 x  16 x 512 0.000 BF
  90 conv    512       1 x 1/ 1     16 x  16 x 512 ->   16 x  16 x 512 0.134 BF
  91 conv    512       3 x 3/ 1     16 x  16 x 512 ->   16 x  16 x 512 1.208 BF
  92 Shortcut Layer: 89,  wt = 0, wn = 0, outputs:  16 x  16 x 512 0.000 BF
  93 conv    512       1 x 1/ 1     16 x  16 x 512 ->   16 x  16 x 512 0.134 BF
  94 conv    512       3 x 3/ 1     16 x  16 x 512 ->   16 x  16 x 512 1.208 BF
  95 Shortcut Layer: 92,  wt = 0, wn = 0, outputs:  16 x  16 x 512 0.000 BF
  96 conv    512       1 x 1/ 1     16 x  16 x 512 ->   16 x  16 x 512 0.134 BF
  97 route  96 81 	                           ->   16 x  16 x1024 
  98 conv   1024       1 x 1/ 1     16 x  16 x1024 ->   16 x  16 x1024 0.537 BF
  99 conv    512       1 x 1/ 1     16 x  16 x1024 ->   16 x  16 x 512 0.268 BF
 100 route  98 		                           ->   16 x  16 x1024 
 101 conv    512       1 x 1/ 1     16 x  16 x1024 ->   16 x  16 x 512 0.268 BF
 102 conv    512       3 x 3/ 1     16 x  16 x 512 ->   16 x  16 x 512 1.208 BF
 103 conv    512       1 x 1/ 1     16 x  16 x 512 ->   16 x  16 x 512 0.134 BF
 104 max                5x 5/ 1     16 x  16 x 512 ->   16 x  16 x 512 0.003 BF
 105 route  103 		                           ->   16 x  16 x 512 
 106 max                9x 9/ 1     16 x  16 x 512 ->   16 x  16 x 512 0.011 BF
 107 route  103 		                           ->   16 x  16 x 512 
 108 max               13x13/ 1     16 x  16 x 512 ->   16 x  16 x 512 0.022 BF
 109 route  108 106 104 103 	                   ->   16 x  16 x2048 
 110 conv    512       1 x 1/ 1     16 x  16 x2048 ->   16 x  16 x 512 0.537 BF
 111 conv    512       3 x 3/ 1     16 x  16 x 512 ->   16 x  16 x 512 1.208 BF
 112 route  111 99 	                           ->   16 x  16 x1024 
 113 conv    512       1 x 1/ 1     16 x  16 x1024 ->   16 x  16 x 512 0.268 BF
 114 conv    256       1 x 1/ 1     16 x  16 x 512 ->   16 x  16 x 256 0.067 BF
 115 upsample                 2x    16 x  16 x 256 ->   32 x  32 x 256
 116 route  79 		                           ->   32 x  32 x 512 
 117 conv    256       1 x 1/ 1     32 x  32 x 512 ->   32 x  32 x 256 0.268 BF
 118 route  117 115 	                           ->   32 x  32 x 512 
 119 conv    256       1 x 1/ 1     32 x  32 x 512 ->   32 x  32 x 256 0.268 BF
 120 conv    256       1 x 1/ 1     32 x  32 x 256 ->   32 x  32 x 256 0.134 BF
 121 route  119 		                           ->   32 x  32 x 256 
 122 conv    256       1 x 1/ 1     32 x  32 x 256 ->   32 x  32 x 256 0.134 BF
 123 conv    256       3 x 3/ 1     32 x  32 x 256 ->   32 x  32 x 256 1.208 BF
 124 conv    256       1 x 1/ 1     32 x  32 x 256 ->   32 x  32 x 256 0.134 BF
 125 conv    256       3 x 3/ 1     32 x  32 x 256 ->   32 x  32 x 256 1.208 BF
 126 route  125 120 	                           ->   32 x  32 x 512 
 127 conv    256       1 x 1/ 1     32 x  32 x 512 ->   32 x  32 x 256 0.268 BF
 128 conv    128       1 x 1/ 1     32 x  32 x 256 ->   32 x  32 x 128 0.067 BF
 129 upsample                 2x    32 x  32 x 128 ->   64 x  64 x 128
 130 route  48 		                           ->   64 x  64 x 256 
 131 conv    128       1 x 1/ 1     64 x  64 x 256 ->   64 x  64 x 128 0.268 BF
 132 route  131 129 	                           ->   64 x  64 x 256 
 133 conv    128       1 x 1/ 1     64 x  64 x 256 ->   64 x  64 x 128 0.268 BF
 134 conv    128       1 x 1/ 1     64 x  64 x 128 ->   64 x  64 x 128 0.134 BF
 135 route  133 		                           ->   64 x  64 x 128 
 136 conv    128       1 x 1/ 1     64 x  64 x 128 ->   64 x  64 x 128 0.134 BF
 137 conv    128       3 x 3/ 1     64 x  64 x 128 ->   64 x  64 x 128 1.208 BF
 138 conv    128       1 x 1/ 1     64 x  64 x 128 ->   64 x  64 x 128 0.134 BF
 139 conv    128       3 x 3/ 1     64 x  64 x 128 ->   64 x  64 x 128 1.208 BF
 140 route  139 134 	                           ->   64 x  64 x 256 
 141 conv    128       1 x 1/ 1     64 x  64 x 256 ->   64 x  64 x 128 0.268 BF
 142 conv    256       3 x 3/ 1     64 x  64 x 128 ->   64 x  64 x 256 2.416 BF
 143 conv     21       1 x 1/ 1     64 x  64 x 256 ->   64 x  64 x  21 0.044 BF
 144 yolo
[yolo] params: iou loss: ciou (4), iou_norm: 0.05, obj_norm: 4.00, cls_norm: 0.50, delta_norm: 1.00, scale_x_y: 2.00
nms_kind: diounms (2), beta = 0.600000 
 145 route  141 		                           ->   64 x  64 x 128 
 146 conv    256       3 x 3/ 2     64 x  64 x 128 ->   32 x  32 x 256 0.604 BF
 147 route  146 127 	                           ->   32 x  32 x 512 
 148 conv    256       1 x 1/ 1     32 x  32 x 512 ->   32 x  32 x 256 0.268 BF
 149 conv    256       1 x 1/ 1     32 x  32 x 256 ->   32 x  32 x 256 0.134 BF
 150 route  148 		                           ->   32 x  32 x 256 
 151 conv    256       1 x 1/ 1     32 x  32 x 256 ->   32 x  32 x 256 0.134 BF
 152 conv    256       3 x 3/ 1     32 x  32 x 256 ->   32 x  32 x 256 1.208 BF
 153 conv    256       1 x 1/ 1     32 x  32 x 256 ->   32 x  32 x 256 0.134 BF
 154 conv    256       3 x 3/ 1     32 x  32 x 256 ->   32 x  32 x 256 1.208 BF
 155 route  154 149 	                           ->   32 x  32 x 512 
 156 conv    256       1 x 1/ 1     32 x  32 x 512 ->   32 x  32 x 256 0.268 BF
 157 conv    512       3 x 3/ 1     32 x  32 x 256 ->   32 x  32 x 512 2.416 BF
 158 conv     21       1 x 1/ 1     32 x  32 x 512 ->   32 x  32 x  21 0.022 BF
 159 yolo
[yolo] params: iou loss: ciou (4), iou_norm: 0.05, obj_norm: 1.00, cls_norm: 0.50, delta_norm: 1.00, scale_x_y: 2.00
nms_kind: diounms (2), beta = 0.600000 
 160 route  156 		                           ->   32 x  32 x 256 
 161 conv    512       3 x 3/ 2     32 x  32 x 256 ->   16 x  16 x 512 0.604 BF
 162 route  161 113 	                           ->   16 x  16 x1024 
 163 conv    512       1 x 1/ 1     16 x  16 x1024 ->   16 x  16 x 512 0.268 BF
 164 conv    512       1 x 1/ 1     16 x  16 x 512 ->   16 x  16 x 512 0.134 BF
 165 route  163 		                           ->   16 x  16 x 512 
 166 conv    512       1 x 1/ 1     16 x  16 x 512 ->   16 x  16 x 512 0.134 BF
 167 conv    512       3 x 3/ 1     16 x  16 x 512 ->   16 x  16 x 512 1.208 BF
 168 conv    512       1 x 1/ 1     16 x  16 x 512 ->   16 x  16 x 512 0.134 BF
 169 conv    512       3 x 3/ 1     16 x  16 x 512 ->   16 x  16 x 512 1.208 BF
 170 route  169 164 	                           ->   16 x  16 x1024 
 171 conv    512       1 x 1/ 1     16 x  16 x1024 ->   16 x  16 x 512 0.268 BF
 172 conv   1024       3 x 3/ 1     16 x  16 x 512 ->   16 x  16 x1024 2.416 BF
 173 conv     21       1 x 1/ 1     16 x  16 x1024 ->   16 x  16 x  21 0.011 BF
 174 yolo
[yolo] params: iou loss: ciou (4), iou_norm: 0.05, obj_norm: 0.40, cls_norm: 0.50, delta_norm: 1.00, scale_x_y: 2.00
nms_kind: diounms (2), beta = 0.600000 
Total BFLOPS 76.144 
avg_outputs = 541681 
 Allocate additional workspace_size = 52.43 MB 
Loading weights from backup/yolov4-csp_best.weights...
 seen 64, trained: 168 K-images (2 Kilo-batches_64) 
…
